LSTM/models/model161616_useless.pth (torch, 198201 bytes, 12 tensors)

conv2d_1.weight f4 [16, 1, 2, 2]
0	0x3ead0e18	0.33799815
1	0xbf0593b8	-0.52178526
2	0x3e13ff2e	0.14452812
3	0x3d03baa6	0.032160424
4	0x3e3cbe1b	0.18431894
5	0xbec092dd	-0.37612048
6	0x3e4f004d	0.20214958
7	0xbebb1016	-0.3653571
8	0x3ea93516	0.33048314
9	0xbe4c2832	-0.19937208
10	0x3e70c164	0.23511273
11	0xbf1318b5	-0.57459575
12	0xbdf6db32	-0.12053527
13	0x3c0f3ff5	0.008743276
14	0xbf3c3ae2	-0.7352735
15	0xbdd4c36d	-0.10388837
16	0xbf0b6000	-0.5444336
17	0xbeccbd2b	-0.39988074
18	0xbed60d81	-0.41807178
19	0x3dd1d089	0.10244853
20	0x3f0669b0	0.52505016
21	0xbdf50a97	-0.119649105
22	0xbdd7171d	-0.105024554
23	0xbf49c1d7	-0.788114
24	0x3ef9f3aa	0.48818713
25	0xbed9e9f5	-0.42561308
26	0xbe6e5a75	-0.23276694
27	0x3ca97971	0.02068779
28	0x3f0dde95	0.5541776
29	0x3e186bb8	0.14884841
30	0x3ebbbc5a	0.36667138
31	0x3f3086f3	0.68955916
32	0x3e1f2ed2	0.15545204
33	0x3ea446dd	0.32085314
34	0x3e93e994	0.28889143
35	0xbf18b915	-0.5965741
36	0x3d392df6	0.045209847
37	0xbe0dc518	-0.13844717
38	0x3ec6add1	0.38804486
39	0xbf2fbb23	-0.6864492
40	0x3eb027ee	0.34405464
41	0x3f18cfd7	0.5969214
42	0x3f0b1b18	0.54338217
43	0xbeb84263	-0.3598815
44	0xbbcd8617	-0.0062720883
45	0x3e8a5d7f	0.27024457
46	0x3f229c01	0.63519293
47	0x3ef4e1d7	0.47828552
48	0xbd0aa3ef	-0.033847746
49	0xbf05e02c	-0.52295184
50	0x3db4b0b0	0.08822763
51	0x3f095fa7	0.5366158
52	0x3e1fd3a1	0.15608074
53	0x3e24897d	0.16068073
54	0xbed4faa3	-0.4159747
55	0xbdd4f28b	-0.10397824
56	0xbd4cb7a1	-0.04997981
57	0x3ed154a0	0.40884876
58	0x3eb6f9b8	0.35737395
59	0x3e560c92	0.20903233
60	0x3e816097	0.25269005
61	0xbee9ffb4	-0.45702899
62	0xbd0d2529	-0.034459267
63	0xbdadbbd2	-0.084830895

conv2d_1.bias f4 [16]
0	0xbd67b078	-0.056564778
1	0xbc8a5eb7	-0.016890867
2	0xbe2f7b21	-0.17136814
3	0xbd90e408	-0.070747435
4	0xbf020f83	-0.5080492
5	0xbe4e03a8	-0.20118582
6	0xbf0e509b	-0.55591744
7	0x3b6aa725	0.0035805192
8	0xbdb72211	-0.089420445
9	0xbda1e7fd	-0.079055764
10	0xbe05c43a	-0.13063136
11	0x3f2e4861	0.6807919
12	0x3ee4a439	0.44656542
13	0xbd938d67	-0.07204705
14	0x3eeb3b3b	0.45943627
15	0xbe91d118	-0.28479838

conv2d_2.weight f4 [32, 16, 3, 3]
0	0x3e901a94	0.28145278
1	0xbd7918f2	-0.060814805
2	0x3db9b32d	0.09067378
3	0x3e0ed322	0.13947728
4	0x3d3feb5b	0.04685531
5	0xbd9b38fe	-0.0757923
6	0x3e86a236	0.26295632
7	0x3eadf47e	0.33975595
8	0xbe96084b	-0.29303202
9	0x3e2c0f46	0.16802701
10	0xbe321361	-0.17390205
11	0x3daf140d	0.08548746
12	0x3cf109be	0.02942359
13	0x3e0582a2	0.13038114
14	0xbd11bcf2	-0.035580583
15	0x3d2c58f0	0.042077005
16	0x3e9848f9	0.29743174
17	0xbdd7f951	-0.105456
18	0xbd9600e0	-0.07324386
19	0x3d158732	0.036505885
20	0x3d1436d5	0.036185104
21	0xbde380ae	-0.11108528
22	0x3e28ca09	0.1648332
23	0xbe1bb069	-0.15204014
24	0x3e4ef24c	0.20209616
25	0x3e9b102b	0.30285773
26	0xbea8cdd2	-0.32969528
27	0x3eccc6fc	0.39995563
28	0xbe64f614	-0.22359496
29	0xbdce135e	-0.10062288
30	0x3eadc47c	0.33938968
31	0xbe1b5b27	-0.1517149
32	0x3e16c7fc	0.14724725
33	0x3e972d39	0.2952669
34	0x3d4fdfe3	0.050750624
35	0x3e50d391	0.20393206
36	0x3ea0ac88	0.3138163
37	0xbd75d552	-0.06001789
38	0xbe2a4c18	-0.1663059
39	0x3e8a867e	0.27055734
40	0xbda299c9	-0.079394884
41	0xbd8e6582	-0.06952955
42	0x3e673fb0	0.22582889
43	0x3d89e6a6	0.06733446
44	0x3e0e4130	0.13892055
45	0xbd858697	-0.065198116
46	0xbda61808	-0.08110052
47	0x3c7cf7bf	0.015439927
48	0xbd6f0906	-0.058358215
49	0x3e517609	0.20455183
50	0xbe08f318	-0.13373983
51	0x3e347b6c	0.17625207
52	0x3e93ebe2	0.28890902
53	0xbdca42ca	-0.0987602
54	0xbdf43c12	-0.1192552
55	0xbe641fa7	-0.222777
56	0x3d8ca0f6	0.06866638
57	0xbd83db15	-0.06438271
58	0xbdcd256f	-0.100169055
59	0x3e006590	0.12538743
60	0x3d928647	0.071545176
61	0x3d9fcb2b	0.07802423
62	0xbd6b8cb5	-0.057507236
63	0x3e29e340	0.16590595
64	0xbd6a7155	-0.057236988
65	0xbd3d6689	-0.046240363
66	0x3e5c7d17	0.21532093
67	0xbc07aa59	-0.00828036
68	0x3e17e7a2	0.14834455
69	0x3e722f8c	0.2365095
70	0xbe28fe2c	-0.16503209
71	0x3da474a5	0.08030061
72	0xbe6609a3	-0.22464614
73	0x3cfe6377	0.031053288
74	0xbda0b7b8	-0.078475416
75	0x3c43e565	0.011956547
76	0x3ebeddc6	0.37278575
77	0xbdd146d2	-0.10218586
78	0x3df1e046	0.11810355
79	0x3eafe7df	0.3435659
80	0xbe3cbe6b	-0.18432014
81	0xbd8675c8	-0.06565434
82	0x3d03269f	0.032019254
83	0x3da1677b	0.078810655
84	0x3d022bef	0.03178018
85	0x3e819390	0.25307894
86	0xbd80a222	-0.062809244
87	0x3e78f13a	0.2431077
88	0x3e9306f7	0.2871625
89	0xbe434ab9	-0.19071473
90	0xbde902c5	-0.11377481
91	0x3ecd19fc	0.40058887
92	0x3e2693ee	0.16267368
93	0xbcc14ad7	-0.023595257
94	0x3eb02903	0.3440629
95	0xbd2b15d5	-0.041768868
96	0x3d9cefce	0.076629266
97	0x3e65c963	0.22440104
98	0xbd282fc5	-0.04106118
99	0x3d4a4066	0.04937782
100	0x3e556c33	0.20842056
101	0x3da0d493	0.07853045
102	0x3e219803	0.15780644
103	0x3be97710	0.007124789
104	0x3de11c29	0.10991699
105	0x3dbf1ad5	0.0933129
106	0xbe06aba6	-0.13151416
107	0x3e350da6	0.17680988
108	0x3e042a08	0.12906659
109	0xbdd7c244	-0.105351
110	0x3dc23614	0.09482971
111	0x3cbaec6e	0.022817817
112	0xbe9834f1	-0.2972789
113	0xbd0c5aa9	-0.034266148
114	0xbe6dc56f	-0.23219846
115	0xbd92d901	-0.071702965
116	0x3cdff8a4	0.02734024
117	0x3d485c81	0.048916344
118	0xbdbc5db3	-0.09197559
119	0x3d7024f6	0.058629
120	0x3e14034b	0.14454381
121	0xbd760661	-0.060064677
122	0x3eb918fe	0.3615188
123	0x3e18f6cc	0.14937896
124	0x3dfc0b9b	0.12306901
125	0x3e8be093	0.27319774
126	0xbcd5430c	-0.026032947
127	0x3e8f8563	0.28031453
128	0x3daa375a	0.08311339
129	0x3e02503f	0.12725924
130	0x3e3e3124	0.18573433
131	0xbc2da881	-0.0105992565
132	0x3e047971	0.12936951
133	0xbe741cf3	-0.23839168
134	0x3e163844	0.14669901
135	0x3e4062ee	0.18787739
136	0xbd967a87	-0.07347589
137	0x3e1d9bd5	0.15391476
138	0xbbce2d1e	-0.0062919995
139	0x3d50dcdd	0.05099188
140	0x3dda8965	0.10670737
141	0x3d64540b	0.055744212
142	0x3e7f7d03	0.24950032
143	0xbde2cfa7	-0.11074763
144	0xbd163071	-0.03666729
145	0xbc260a9c	-0.010134365
146	0x3e9255a2	0.28580958
147	0xbdd66f7b	-0.10470482
148	0x3e1bd2d4	0.15217143
149	0xbe070d5e	-0.13188693
150	0xbdb2f918	-0.08738917
151	0x3e0e93e0	0.13923597
152	0xbe9cab69	-0.30599526
153	0x3d2bcd76	0.04194399
154	0xbca57ef0	-0.02020213
155	0xbd3c3d32	-0.045956798
156	0xbd978ff6	-0.07400505
157	0x3ce232cb	0.02761211
158	0xbe9797c9	-0.2960799
159	0xbea4ac33	-0.32162628
160	0x3d440466	0.047855757
161	0xbedfa354	-0.43679297
162	0x3c2328b8	0.009958439
163	0xbd773bf6	-0.060359918
164	0xbd6c6b39	-0.057719443
165	0xbe6bf517	-0.23042713
166	0x3e05a7d9	0.1305231
167	0xbeee1369	-0.46499184
168	0xbed4d5dc	-0.41569412
169	0x3da55624	0.08073071
170	0xbf1d4418	-0.6143203
171	0x3ec8791a	0.39154893
172	0xbdf0725f	-0.117405646
173	0xbd1bbaa9	-0.03801981
174	0x3f1e5b36	0.61857927
175	0xbe8b756c	-0.27238023
176	0x3d3682ff	0.04455852
177	0x3f16e4a1	0.5894261
178	0xbe98b4f7	-0.29825565
179	0x3d074355	0.033023197
180	0x3e80e1dd	0.2517232
181	0xbd980ad9	-0.07423944
182	0xbdea825a	-0.11450644
183	0x3eda9501	0.42691806
184	0xbd61fb96	-0.05517157
185	0x3d042c69	0.032268915
186	0x3ec2334b	0.37929758
187	0xbe81bb97	-0.25338432
188	0xbda11edf	-0.07867216
189	0xbcf3da4e	-0.029767182
190	0xbc903a38	-0.017605886
191	0xbd801637	-0.06254237
192	0xbe02a9c5	-0.12760074
193	0x3ba5d6ce	0.005061007
194	0xbef78cf4	-0.48349726
195	0xbeb11b9d	-0.3459138
196	0x3d33c917	0.043892946
197	0xbf05b4d4	-0.52229047
198	0x3d907cda	0.070550635
199	0x3e023345	0.1271487
200	0x3e8c70ce	0.27429813
201	0x3d1b2b91	0.037883345
202	0x3e7b7d83	0.24559598
203	0x3c2c60fc	0.01052117
204	0xbdeae82a	-0.11470063
205	0x3e8d9b13	0.27657375
206	0xbeb69070	-0.35657072
207	0x3ef345c3	0.4751416
208	0x3ead16c1	0.33806422
209	0xbc6eb927	-0.014570511
210	0x3efbf2ea	0.49208766
211	0x3edb2c91	0.4280744
212	0x3e0a1b3b	0.1348695
213	0x3e9704a9	0.29495743
214	0x3f0ce466	0.5503601
215	0x3e63b1cb	0.22235791
216	0xbd0cd528	-0.03438297
217	0x3e4ce7c2	0.20010284
218	0xbe1a4160	-0.15064001
219	0xbeaa2a33	-0.3323532
220	0x3e9c5941	0.30536845
221	0xbf0a26f6	-0.539657
222	0xbea928a9	-0.33038834
223	0x3e6417f0	0.22274756
224	0xbf0bf589	-0.5467153
225	0xbde7ed17	-0.11324518
226	0xbd07c65d	-0.03314816
227	0xbe09eec6	-0.13469991
228	0xbe509e48	-0.2037288
229	0x3e3fec1d	0.18742414
230	0xbefeb0a3	-0.49744138
231	0xbe9889a1	-0.29792503
232	0x3e17bda3	0.14818434
233	0xbf03fb16	-0.51555
234	0xbe91cb51	-0.2847543
235	0x3e1e104a	0.15435901
236	0xbe9b4397	-0.30325004
237	0xbeb8ed0e	-0.36118358
238	0x3e85cbf6	0.26132172
239	0xbf141c5e	-0.57855785
240	0xbe80e6c1	-0.2517605
241	0x3e159839	0.1460885
242	0xbf07ebcd	-0.5309418
243	0x3ed7ef14	0.4217459
244	0x3e9c1eea	0.30492336
245	0x3a83d57d	0.0010058131
246	0x3eaaf7c9	0.3339217
247	0x3ebb2211	0.36549428
248	0x3e5b9458	0.21443307
249	0x3eed050f	0.46292922
250	0x3ec5a663	0.38603505
251	0x3e71e6cd	0.236232
252	0x3ee472be	0.4461879
253	0xbabb9462	-0.0014311189
254	0x3e2c473b	0.16824047
255	0x3efef21a	0.49794084

conv2d_2.bias f4 [32]
0	0x3df53c97	0.11974447
1	0x3d085882	0.033287533
2	0x3ddb2d90	0.1070205
3	0xbe4096f1	-0.1880758
4	0xbd294774	-0.04132791
5	0xbea245ac	-0.3169378
6	0x3e5919e4	0.21201283
7	0xbd862416	-0.065498516
8	0x3d8e86ec	0.06959328
9	0xbe19a500	-0.15004349
10	0x3da97ef9	0.08276171
11	0x3e65c4cb	0.22438352
12	0xbd57dcec	-0.052700922
13	0xbd9217ad	-0.07133422
14	0x3da457ef	0.080245845
15	0x3eb1b9bf	0.34712026
16	0xbe307dba	-0.17235461
17	0x3e31c919	0.17361869
18	0x3e0c701a	0.13714638
19	0xbdf5999a	-0.11992188
20	0xbe255be3	-0.16148333
21	0x3e9803ec	0.29690492
22	0x3bff7c56	0.0077968044
23	0x3da6db47	0.081472926
24	0xbe184ed4	-0.1487382
25	0x3da7168e	0.08158599
26	0x3e876a64	0.26448357
27	0x3de96cc9	0.11397702
28	0x3eaa6c76	0.33285874
29	0x3d2c50f3	0.042069387
30	0x3d81de63	0.06341245
31	0xbe242a48	-0.16031754

conv2d_3.weight f4 [64, 32, 4, 4]
0	0x3ddd6e0e	0.10812007
1	0x3cc8d098	0.024513528
2	0x3d3fdeb2	0.04684324
3	0xbd86e9e1	-0.065875776
4	0x3e0bb7a8	0.13644278
5	0x3d2412e5	0.04005708
6	0x3d60fa63	0.054926287
7	0xbcaef6b4	-0.021357872
8	0x3e0d412e	0.13794395
9	0x3d347fdb	0.044067245
10	0x3d9251bc	0.07144496
11	0xbd57e0ad	-0.052704502
12	0x3dda9cbc	0.10674426
13	0xbc682efa	-0.014171356
14	0x3d76a00f	0.060211238
15	0xbcee6385	-0.029100189
16	0xbe6fb32b	-0.23408191
17	0xbcea6873	-0.028614258
18	0x3d77ef58	0.06053099
19	0xbcfa582d	-0.030559624
20	0xbe50c80c	-0.20388812
21	0xbcd3ab76	-0.025838595
22	0x3db49bcb	0.08818778
23	0xbcf34f07	-0.02970077
24	0xbe58b296	-0.21161875
25	0xbcf08bbd	-0.029363507
26	0x3dae35d4	0.08506361
27	0x3b8fe342	0.004391105
28	0xbe7397de	-0.23788401
29	0x3b121fe6	0.0022296845
30	0x3d8b347d	0.06797121
31	0x3c9cc451	0.01913658
32	0xbe414519	-0.18874015
33	0xbd03326f	-0.03203052
34	0x3d0c81a5	0.034303326
35	0xbbc1d7b5	-0.005915607
36	0xbeb28d04	-0.3487321
37	0xbda4bc7a	-0.080437616
38	0x3d5329a0	0.05155337
39	0x3cb7fe90	0.022460252
40	0xbeb67f0d	-0.35643807
41	0xbcb87571	-0.022516938
42	0x3da2bf65	0.07946662
43	0x3b6ed847	0.003644483
44	0xbe8d67fe	-0.27618402
45	0xbdb1b4f5	-0.08677093
46	0xbc875b8d	-0.016523147
47	0xbbf9ab4b	-0.0076192967
48	0xbd0c7e1c	-0.034299955
49	0x3ccc1bbe	0.024915572
50	0x3b89e501	0.0042082076
51	0xbbbfb501	-0.005850435
52	0x3a12d580	0.0005601272
53	0x3b191be0	0.0023362562
54	0xbc888c29	-0.016668396
55	0xbcac4b8d	-0.02103212
56	0xbcfec924	-0.03110177
57	0xbc0e16c0	-0.008672416
58	0xbca2f59a	-0.019892503
59	0xbd05d37a	-0.032672383
60	0x3cfcbcc2	0.030851725
61	0xbd23a1bf	-0.039949175
62	0x3c972293	0.018449103
63	0xbc80be83	-0.015715843
64	0x3d09f0b3	0.033676814
65	0xbd162821	-0.036659364
66	0xbca52562	-0.020159427
67	0xbc920b7f	-0.017827747
68	0xbca49de8	-0.020094827
69	0x3cce0df6	0.025153141
70	0xbceefcb0	-0.029173225
71	0xbcaa9c62	-0.020826522
72	0xbc4f9198	-0.01266899
73	0xbc2e0ce4	-0.010623191
74	0xbbe71da0	-0.007053092
75	0x3cb3dca2	0.021955792
76	0x3c18d92c	0.009329122
77	0xbcd63610	-0.026148826
78	0xbcd72b5f	-0.026265798
79	0x3cedd72e	0.02903327
80	0xbd023d29	-0.031796608
81	0xbcf5cb4f	-0.030004172
82	0xbcce3896	-0.025173467
83	0x3c115aa6	0.00887171
84	0x3cd683bf	0.026185868
85	0xbd818bd8	-0.06325501
86	0xbd8b1fd6	-0.067931816
87	0xbc7cd2ff	-0.015431165
88	0xbce547c4	-0.027988322
89	0xbd5d6b9a	-0.054057695
90	0x3c133442	0.008984627
91	0xbd15e496	-0.03659495
92	0x3c83c493	0.016084945
93	0x3b890012	0.0041809166
94	0x3cee4943	0.029087668
95	0xbc7b9407	-0.015355117
96	0xbde132f7	-0.10996049
97	0xbe279361	-0.16364814
98	0x3d653912	0.05596263
99	0x3ceda740	0.029010415
100	0xbe0da8cc	-0.13833922
101	0xbe1449e8	-0.14481318
102	0x3b7af056	0.0038290224
103	0xbcf7152d	-0.030161465
104	0xbe666c67	-0.2250229
105	0xbdf58ce2	-0.11989762
106	0xbd276d0e	-0.040875487
107	0x3d3aa06c	0.045563146
108	0xbe6ae8f0	-0.22940421
109	0xbd8dc973	-0.06923189
110	0x3d94befd	0.072629906
111	0x3cab4d70	0.020910949
112	0x3cf9da6e	0.030499663
113	0x3cec5b4a	0.028852124
114	0x3d1d763d	0.03844284
115	0x3ccd875f	0.025088964
116	0x3b862ea0	0.0040949136
117	0xbd0079b6	-0.031366073
118	0x3c208318	0.00979688
119	0xbcfb0edf	-0.03064674
120	0x3b431840	0.0029769093
121	0x3d30caf7	0.043162312
122	0xbd28655f	-0.0411123
123	0x3d17bad6	0.037043415
124	0x3d318f57	0.04334959
125	0xbd331691	-0.043722693
126	0x3d2351f9	0.039873097
127	0x3a394fc6	0.0007069077
128	0x3c449e62	0.012000652
129	0xbe066ef1	-0.13128258
130	0xbc696c68	-0.0142470375
131	0xbca4f197	-0.02013473
132	0xbd835e16	-0.0641443
133	0xbdb93800	-0.09043884
134	0xbb9d0f76	-0.004793103
135	0xbbe670b9	-0.0070324806
136	0xbcb5fb42	-0.022214536
137	0xbe09b5fa	-0.13448325
138	0x3d9c4c8a	0.07631786
139	0xbd030484	-0.03198673
140	0xbdbc4cc0	-0.091943264
141	0xbe0911c0	-0.13385677
142	0x3bee890c	0.007279521
143	0xbd76e739	-0.060279105
144	0xbddd3f73	-0.108031176
145	0xbccf1108	-0.025276676
146	0x3c992189	0.018692749
147	0xbc079273	-0.008274662
148	0xbd50f42a	-0.051014103
149	0x3d17c90e	0.037056975
150	0x3d3ac87e	0.04560136
151	0xbb938897	-0.0045023668
152	0xbd5cf191	-0.053941313
153	0x3cec7b7f	0.028867481
154	0x3dc04f5c	0.093901366
155	0x3c814c3d	0.015783424
156	0xbda581d1	-0.08081401
157	0x3dbda877	0.09260648
158	0x3d513563	0.051076304
159	0xbe1f8444	-0.15577799
160	0x3e9da8cd	0.30792847
161	0x3e069475	0.1314257
162	0x3e19bcf9	0.15013494
163	0x3dea9a48	0.11455208
164	0x3ec2a93d	0.38019744
165	0x3e4b9f08	0.19884884
166	0x3dfb85b6	0.12281363
167	0x3dce3db7	0.10070365
168	0x3ec235bc	0.3793162
169	0x3e52ad9f	0.20574044
170	0x3d3e99c4	0.04653336
171	0x3de226a8	0.11042529
172	0x3ec1c6ee	0.37847084
173	0x3de12aa8	0.10994464
174	0x3dcaaed7	0.09896629
175	0x3e3b8db4	0.18315774
176	0xbdc4430b	-0.095831
177	0x3d7735b3	0.060353946
178	0x3c2ad7e5	0.01042745
179	0x3b89848b	0.0041967086
180	0xbc88355f	-0.016627012
181	0x3d5941bb	0.0530412
182	0x3d357f40	0.04431081
183	0x3d06ef51	0.032943074
184	0xbd9b40ed	-0.07580743
185	0x3d824f78	0.06362814
186	0x3d1ac070	0.03778118
187	0xbd26007c	-0.040527806
188	0xbd7b7f4c	-0.061400697
189	0x3d85e526	0.06537847
190	0x3d0563d4	0.032565907
191	0xbc877450	-0.016534954
192	0xbd0c91ca	-0.034318723
193	0xbc79220c	-0.015205871
194	0x3ca34e26	0.019934725
195	0x3d252fe1	0.040328864
196	0xbd4a031e	-0.04931938
197	0x3d21fa8c	0.03954558
198	0xbc2a2b64	-0.010386322
199	0x3ca96f7a	0.020683039
200	0x3aa34d86	0.0012459017
201	0xbc85f859	-0.016353773
202	0xbca9513c	-0.020668618
203	0x3ba2cdf0	0.0049683973
204	0xb950284f	-0.00019851442
205	0x3cf29546	0.029612195
206	0xbb25af40	-0.002528146
207	0xbd2b9965	-0.041894335
208	0xbcb409b7	-0.021977289
209	0xbcca5316	-0.024697822
210	0x3ce82f05	0.028342733
211	0xb9e7cfb2	-0.00044214498
212	0xbce0588a	-0.027385969
213	0x3cf28d5e	0.029608425
214	0xbd188519	-0.037236307
215	0x3c2f32b5	0.010693242
216	0x3c0d5a38	0.008627467
217	0xbbfe3c88	-0.0077586807
218	0xbd1843d5	-0.037174065
219	0xbc2b4a17	-0.010454676
220	0x3c9a24ae	0.018816318
221	0x3ce6b722	0.028163496
222	0x3b9fb166	0.0048734425
223	0xbd17292f	-0.03690451
224	0x3da5c26b	0.08093723
225	0x3e132a6b	0.1437165
226	0xbcf05e88	-0.029341951
227	0xbd8c4e4b	-0.06850871
228	0x3d27870f	0.040900286
229	0x3daf367f	0.08555316
230	0x3a0fd5e3	0.00054868887
231	0xbd837c85	-0.064202346
232	0x3d9c453a	0.076303914
233	0x3de14471	0.10999382
234	0x3d08da93	0.033411574
235	0xbd4229ae	-0.04740303
236	0x3d0fdf88	0.035125285
237	0x3d890c64	0.066918164
238	0xbd21ae7d	-0.039473046
239	0xbd8122e7	-0.06305485
240	0xbdeccd22	-0.115625635
241	0xbe0967a8	-0.13418448
242	0x3d068383	0.032840263
243	0x3d97cb41	0.074118145
244	0xbd3a29cd	-0.04545002
245	0xbe17af35	-0.1481293
246	0x3da3a255	0.07989947
247	0x3d2d4e06	0.042310737
248	0xbd8c6901	-0.068559654
249	0xbdb311d1	-0.087436326
250	0x3d80e4a7	0.06293612
251	0x3ca994a8	0.020700768
252	0xbdd04f26	-0.10171346
253	0xbda59b49	-0.08086259
254	0x3d91c0b8	0.07116836
255	0x3d3dbecb	0.046324532

conv2d_3.bias f4 [64]
0	0x3c30f33c	0.010800179
1	0xbbb9dfcd	-0.005672431
2	0x3dda38dd	0.10655377
3	0x3c9f4eef	0.019446818
4	0xbba1c8f6	-0.0049372865
5	0xbd448610	-0.047979414
6	0x3c6c43b6	0.01442044
7	0xbde58836	-0.11207621
8	0x3b9af54b	0.004728948
9	0xbd8812b1	-0.0664419
10	0x3ca91197	0.02063827
11	0xbc5cc8e6	-0.013475632
12	0xbe221cb8	-0.15831268
13	0xbd5aac21	-0.05338681
14	0x3ba8703b	0.005140332
15	0x3cf17958	0.029476807
16	0xbe415518	-0.18880117
17	0xbd0e2c4c	-0.034710214
18	0xbda10200	-0.078617096
19	0xbdb9d2a4	-0.0907338
20	0x3c01e691	0.0079285065
21	0x3ea7684b	0.32696757
22	0xbdd0e050	-0.10199034
23	0xbca0208a	-0.019546766
24	0x3b2028a8	0.0024438296
25	0x3d5d8158	0.05407843
26	0xbcc4a64a	-0.024005074
27	0x3c4a9e7a	0.012366885
28	0xbce4d667	-0.027934266
29	0x3d4a375c	0.0493692
30	0xbb8facfa	-0.004384634
31	0xbc0b379c	-0.008497145
32	0x3c0f33e5	0.0087404
33	0x3d287229	0.041124497
34	0xbc0d107e	-0.008609889
35	0x3bc078f3	0.0058737933
36	0x3bf28d41	0.0074020927
37	0x3dffc9c4	0.124896556
38	0xbc51b917	-0.0128004765
39	0xbd46b13c	-0.048508868
40	0xbbf0fdf5	-0.007354493
41	0xbd4e558b	-0.05037455
42	0xbd2d47a5	-0.042304654
43	0x3ba85cf9	0.0051380363
44	0xbcea64eb	-0.028612575
45	0x3d230579	0.03980014
46	0xbd162470	-0.036655843
47	0xbd1ef094	-0.038803652
48	0xbe2ba69a	-0.16762772
49	0xbd1ccf5e	-0.0382837
50	0xbd9e5cd0	-0.07732546
51	0xbbe8bd39	-0.007102635
52	0x3dd73fa1	0.10510183
53	0x3d0fe18a	0.0351272
54	0xbbfd21e9	-0.0077249897
55	0x3e731fa7	0.23742543
56	0x3d415258	0.04719767
57	0xbd1a64af	-0.037693676
58	0xbdc72f3a	-0.097258046
59	0x3cad6171	0.021164628
60	0xbd40262b	-0.0469114
61	0x3c8c3619	0.01711564
62	0x3cc836c8	0.024440184
63	0x3e5fed51	0.21867873

lstm.weight_ih_l0 f4 [64, 128]
0	0xbc671b3a	-0.014105612
1	0x3e2647d9	0.16238345
2	0x3e6f5ae2	0.23374513
3	0x3e8b6139	0.27222613
4	0x3d9bc5d4	0.07606092
5	0x3de9b5bd	0.11411617
6	0xbe179cb1	-0.14805867
7	0x3e353057	0.17694221
8	0x3d1eec78	0.038799733
9	0xbdf51232	-0.11966361
10	0xbe3f79c2	-0.1869879
11	0x3e39c693	0.18142156
12	0x3e080317	0.13282429
13	0x3dbcdd4a	0.09221895
14	0xbd5a94ef	-0.05336469
15	0xbda480dd	-0.08032391
16	0xbe2b6c4d	-0.16740532
17	0xbdca49a1	-0.09877325
18	0xbe8c8135	-0.27442327
19	0x3d1f9e8d	0.038969565
20	0x3cb2ad72	0.02181122
21	0x3e01027e	0.12598607
22	0xbe617482	-0.220171
23	0x3d724a72	0.059153028
24	0xbe81cac3	-0.25350007
25	0x3d33590e	0.0437861
26	0xbe5255c1	-0.20540525
27	0xbe6704b1	-0.22560383
28	0xbea2de0b	-0.3181003
29	0x3d9868e9	0.07441885
30	0xbe1255c1	-0.14290525
31	0xbeabb1ec	-0.3353418
32	0x3e580f33	0.21099548
33	0x3e28cc6a	0.16484228
34	0xbbb2e012	-0.00545884
35	0xbc6e7118	-0.014553331
36	0xbe3cab5e	-0.18424746
37	0xbe25e0bb	-0.16199009
38	0xbd2dfa3b	-0.042474966
39	0x3d0a887e	0.033821575
40	0x3e5f3cc6	0.21800527
41	0x3d3426fa	0.043982483
42	0x3ebd0508	0.369179
43	0x3e2770d8	0.1635164
44	0xbe42e068	-0.19030917
45	0x3c9e1ee4	0.01930184
46	0xbc91ed15	-0.017813245
47	0xbea93201	-0.33045962
48	0xbea1c32b	-0.31594214
49	0x3d8f41e6	0.06994991
50	0x3def56ce	0.116864786
51	0xbd703f68	-0.05865422
52	0xbd864733	-0.06556549
53	0xbd00cc55	-0.031444866
54	0xbe861159	-0.2618511
55	0xbe8fc17d	-0.28077307
56	0x3bf8b684	0.007590117
57	0xbe25aa83	-0.16178326
58	0xbebf3c23	-0.37350568
59	0xbe16b5b5	-0.14717753
60	0x3e31cab2	0.17362478
61	0xbd4a9b6d	-0.04946463
62	0x3e68fa5e	0.22751758
63	0xbcf21f9e	-0.029556092
64	0xbe840729	-0.25786713
65	0xbecb60ff	-0.3972244
66	0x3c93b57d	0.018030876
67	0xbe7f2839	-0.24917687
68	0xbe5881bb	-0.21143238
69	0x3e0a2f99	0.1349472
70	0x3e65a272	0.22425249
71	0x3da39c85	0.07988838
72	0x3d7bbea9	0.061461125
73	0xbe0573f8	-0.1303252
74	0x3e16ec60	0.14738607
75	0x3c987be3	0.018613761
76	0xbc88113b	-0.016609779
77	0xbe72ccf9	-0.23711003
78	0xbc8bee95	-0.017081538
79	0x3c095ff6	0.008384695
80	0xbe2c9e6d	-0.1685731
81	0xbf2c00a1	-0.6718846
82	0x3e1a896f	0.1509149
83	0xbf18c7b9	-0.5967975
84	0xbdf54ea5	-0.11977891
85	0xbebc703b	-0.36804375
86	0xbefa9ecb	-0.48949274
87	0xbf409d3e	-0.7523993
88	0xbed8ba3d	-0.4232959
89	0xbe53fc92	-0.20701817
90	0xbe5bc97a	-0.21463576
91	0xbe321a22	-0.17392781
92	0xbe9cb784	-0.3060876
93	0xbea51c25	-0.32248035
94	0x3db5d251	0.08878005
95	0xbe05d1c0	-0.13068295
96	0xbd76245d	-0.060093272
97	0xbe7e37c1	-0.24825956
98	0xbd3bf576	-0.045888387
99	0xbddcd920	-0.10783601
100	0xbd37eee0	-0.044905543
101	0xbeb95ea7	-0.36205027
102	0x3d7946d9	0.06085858
103	0x3dad2c63	0.08455732
104	0xbd4f6419	-0.05063257
105	0x3d3790c0	0.04481578
106	0xbe531297	-0.2061256
107	0xbe4862ab	-0.19568889
108	0xbdb38b55	-0.0876681
109	0x3d53f0af	0.051743206
110	0x3e66eea3	0.2255197
111	0x3d554504	0.05206777
112	0x3e41e596	0.18935236
113	0x3e87cfbb	0.26525673
114	0x3db348da	0.0875413
115	0x3d3c0b38	0.045909137
116	0x3e5adcc1	0.21373273
117	0x3d80e7d9	0.062942214
118	0x3eb3f680	0.35149002
119	0x3d8bbbb2	0.068229094
120	0x3d8d09b8	0.06886619
121	0xbe3eccd7	-0.18632828
122	0x3dc46b90	0.095908284
123	0xbe0a20bd	-0.13489051
124	0x3e86c352	0.26320893
125	0xbca1dc07	-0.019758238
126	0xbd3dea11	-0.0463658
127	0xbdd763b5	-0.105170645
128	0x3ed0cf6c	0.4078325
129	0x3e5476ed	0.20748492
130	0x3f1cf886	0.61316717
131	0x3e322af5	0.173992
132	0x3ec572c3	0.3856412
133	0x3ec17736	0.37786263
134	0x3e4cd761	0.20004036
135	0xbda00dbb	-0.07815119
136	0x3e4fafdb	0.20281927
137	0xbddc497c	-0.107562035
138	0x3c085e37	0.008323244
139	0x3df7ef70	0.12106216
140	0x3e8672d9	0.26259497
141	0xbd4fcfe3	-0.050735366
142	0x3eed06fc	0.4629439
143	0x3e2071bf	0.1566839
144	0x3e90537f	0.28188702
145	0x3d93e4bf	0.07221364
146	0x3ea4b774	0.32171214
147	0x3e8d6ed9	0.27623633
148	0x3e742526	0.23842296
149	0x3e21d149	0.15802492
150	0x3e9f7dfe	0.31150812
151	0x3e1c4b20	0.15263033
152	0x3e727ec5	0.23681171
153	0x3d837e93	0.064206265
154	0x3e4bae5b	0.1989073
155	0xbd75d86c	-0.06002085
156	0x3eb85be8	0.3600762
157	0xbdab3bd0	-0.08361018
158	0x3e288114	0.1645549
159	0xbddd82d9	-0.10815973
160	0x3e8588e1	0.26080993
161	0x3e805819	0.25067213
162	0x3ddf652f	0.10907971
163	0x3cde3854	0.027126469
164	0x3d65ce04	0.056104675
165	0x3e83079e	0.2559175
166	0x3e20bfeb	0.15698211
167	0x3e3ab17a	0.18231764
168	0x3dfd15c6	0.123576686
169	0x3d7a93f0	0.06117624
170	0x3e8f7e9e	0.2802629
171	0xbe4c824b	-0.19971578
172	0xbda15548	-0.07877594
173	0x3d089bff	0.033351894
174	0xbe3b0f70	-0.18267608
175	0xbd23622a	-0.03988854
176	0xbd957d5d	-0.07299302
177	0xbcdfa87e	-0.027302023
178	0xbe6a2423	-0.22865348
179	0x3e84cf5d	0.25939456
180	0x3e03c7ba	0.12869158
181	0x3ea7c4dc	0.3276738
182	0x3d076e0e	0.03306394
183	0xbd9fa138	-0.07794422
184	0x3dec71d5	0.11545149
185	0xbd90c3b4	-0.070685774
186	0x3e53a0b1	0.20666768
187	0x3e7628fa	0.24039069
188	0x3d8de63f	0.069286816
189	0x3e0e4c95	0.13896401
190	0xbecad7fe	-0.39617914
191	0x3e81bd79	0.2533987
192	0xbe82b9d2	-0.25532395
193	0x3e9bf61b	0.304612
194	0xbddeacac	-0.10872778
195	0x3e9d00d2	0.30664688
196	0xbd808e4f	-0.06277143
197	0x3e5aa4f1	0.21351983
198	0xbda5df23	-0.080992006
199	0x3e777ece	0.24169466
200	0x3e4997f4	0.19686872
201	0xbdd7b367	-0.10532265
202	0xbe0ef0ba	-0.13959017
203	0x3ccb6d2e	0.024832334
204	0xbd201151	-0.039079014
205	0xbe0e8e9f	-0.13921593
206	0x3ded10e7	0.115754895
207	0xbc911629	-0.017710762
208	0xbd8ced92	-0.068812504
209	0x3e091bf9	0.13389577
210	0x3e32d5f9	0.17464437
211	0x3e83c654	0.2573725
212	0x3e80aa3e	0.25129884
213	0xbd193ce9	-0.037411604
214	0x3de95f9e	0.11395191
215	0xbccc6242	-0.024949197
216	0xbd8a8fbf	-0.06765699
217	0x3ec58edf	0.38585564
218	0x3df55ec2	0.11980964
219	0x3e281f42	0.16418174
220	0x3e6dd721	0.23226596
221	0x3ebb88e6	0.36627883
222	0x3e1e4275	0.15455039
223	0x3dbca221	0.09210611
224	0x3d48f5d6	0.049062572
225	0x3e4b64f5	0.19862731
226	0x3d8132b2	0.063084975
227	0xbdb040b3	-0.086060904
228	0x3d980fc9	0.07424886
229	0x3de29ccd	0.110650636
230	0x3e91f627	0.28508112
231	0x3d908020	0.07055688
232	0x3eab4576	0.33451432
233	0x3e9c2bae	0.30502075
234	0x3e5d934d	0.21638222
235	0x3e06819c	0.1313538
236	0xbd3b8340	-0.045779467
237	0x3ed1b2ed	0.40956822
238	0x3d1daf52	0.038497277
239	0x3eaaffc2	0.33398253
240	0xbb470c5f	-0.0030372364
241	0x3e1b855c	0.15187591
242	0xbda38357	-0.079840355
243	0xbce50324	-0.0279556
244	0xbe12a07b	-0.14319031
245	0x3d557760	0.052115798
246	0xbd9444a5	-0.072396554
247	0xbddd9dee	-0.10821138
248	0xbdb92154	-0.0903956
249	0xbd723451	-0.059131924
250	0xbe15d0b5	-0.14630397
251	0xbdd15d52	-0.102228776
252	0x3d8a50d5	0.06753699
253	0x3da9314d	0.082613565
254	0xbd2081f0	-0.039186418
255	0x3e8b3010	0.27185106

lstm.weight_hh_l0 f4 [64, 16]
0	0xbfa4de0c	-1.2880263
1	0x3eb31bf0	0.34982252
2	0xbf0b2b39	-0.5436283
3	0x3f44d4dc	0.768873
4	0xbf316a46	-0.69302785
5	0x3f40f209	0.75369316
6	0xbf4029c9	-0.7506376
7	0x3f91c149	1.1387111
8	0x3d20bc3d	0.039242018
9	0xbed5a33e	-0.41726106
10	0x3fe3052d	1.7735955
11	0xbf1d2263	-0.61380595
12	0x3fb4c236	1.4121768
13	0xbf7deb98	-0.9918761
14	0x3ef78d1f	0.48349854
15	0xbd5e261c	-0.054235563
16	0x3edddc0b	0.43331942
17	0x3dba3aaa	0.090932205
18	0xbe7a0192	-0.24414662
19	0x3e607001	0.21917726
20	0xbee06903	-0.43830118
21	0xbf080904	-0.53138757
22	0x3e8a03fb	0.26956162
23	0x3e11280b	0.14175431
24	0x3fa9e0d7	1.3271741
25	0xbf427e1a	-0.75973666
26	0xbed1aa20	-0.40950108
27	0xbef5dd1b	-0.48020253
28	0xbf3112bc	-0.6916921
29	0x3f410ed9	0.7541328
30	0xbf0e403b	-0.5556676
31	0xbf037aa0	-0.51358986
32	0x3fb5807a	1.4179833
33	0xbf0595bf	-0.5218162
34	0x3ec6aeca	0.38805228
35	0xbda3fc0b	-0.08007058
36	0x3e8e8f91	0.27843907
37	0xbbf29819	-0.0074033854
38	0xbe797403	-0.24360661
39	0xbd868611	-0.0656854
40	0xbcb46ee3	-0.022025531
41	0xbfbf45c1	-1.4943162
42	0x3f0f1a08	0.55899096
43	0xc0049f2e	-2.0722156
44	0xbea9dec1	-0.3317776
45	0xbf8368df	-1.0266379
46	0xbe3ce013	-0.18444853
47	0x3ee5c75d	0.44878665
48	0xbf1de01c	-0.6167009
49	0x3e2fd2e6	0.17170295
50	0x3f22e09f	0.63623995
51	0x3f007081	0.5017167
52	0x3fd41093	1.6567558
53	0x3f55f9e7	0.83584446
54	0x3f4db2e4	0.8035109
55	0xbf8ffff3	-1.1249985
56	0x4007d298	2.1222286
57	0xbfd63266	-1.673413
58	0x4004098d	2.063083
59	0xbe930a02	-0.28718573
60	0x3f86fb77	1.0545491
61	0x3ff7e002	1.9365237
62	0x3db12c74	0.08651057
63	0x3fb9edaa	1.4525654
64	0x3faf794d	1.3708893
65	0xbe8cdb60	-0.2751112
66	0x3e106de9	0.14104427
67	0xbdbe1562	-0.09281422
68	0x3eabb6eb	0.33537993
69	0x3d9310b3	0.071809195
70	0xbf3d862e	-0.74032867
71	0x3f52f3ac	0.82403064
72	0x3e9ae97b	0.30256256
73	0xbef62c96	-0.4808089
74	0xbd8be8d2	-0.06831516
75	0xc0245fe9	-2.568354
76	0x3d134ebf	0.03596377
77	0xbf01369f	-0.5047397
78	0xbecebccd	-0.4037842
79	0xbe965a01	-0.29365543
80	0xbf9ac175	-1.2090288
81	0x3f3a43e2	0.7275983
82	0x3f2fda67	0.6869263
83	0xbf8715db	-1.0553545
84	0x3d9601c5	0.07324556
85	0xbe9cc81d	-0.30621424
86	0xbdf92fb0	-0.12167299
87	0xbebcf3a7	-0.36904642
88	0xbf140560	-0.578207
89	0x3ddcaa1a	0.10774632
90	0xbf97b7f7	-1.1853017
91	0x3e734840	0.2375803
92	0x3e4461bb	0.19177906
93	0x3e8f0c6e	0.2793917
94	0x3f0904a2	0.53522694
95	0x3d88b318	0.066747844
96	0x3c012f02	0.007884743
97	0x3ee85ee5	0.453849
98	0xbf07991d	-0.5296801
99	0x3f034805	0.5128177
100	0xbf6710cc	-0.90260005
101	0xbc0f8cde	-0.008761613
102	0xbf5258f7	-0.82167
103	0x3e62ba34	0.22141343
104	0xbc14f52f	-0.009091659
105	0x3e842aa1	0.25813773
106	0xbe98ebff	-0.2986755
107	0x3d9fe6c3	0.07807686
108	0x3e93e5bb	0.28886208
109	0xbd2bde90	-0.0419603
110	0xbeef800d	-0.46777382
111	0x3d57efba	0.052718855
112	0x3fcb66d4	1.5890756
113	0x3ea9c077	0.33154652
114	0x3e64424f	0.2229092
115	0xbd070a8b	-0.03296904
116	0xbeb32108	-0.34986138
117	0xbf0a3c40	-0.53998184
118	0xbe06fca0	-0.13182306
119	0xbd7e25ff	-0.062047955
120	0xbdd5b8be	-0.104356274
121	0xbe0095ce	-0.12557146
122	0xbef8b237	-0.48573467
123	0xbf4d5f66	-0.8022369
124	0xbf215f60	-0.63036156
125	0xbf05b043	-0.5222208
126	0x3eef0cad	0.46689358
127	0x3f1050af	0.56373113
128	0x3f5779e6	0.8417038
129	0xbe7ca9ad	-0.24674101
130	0x3e39c607	0.18141948
131	0x3ebf5a9b	0.37373814
132	0x3e87f5b4	0.26554644
133	0xbdae1457	-0.08499973
134	0xbf92d5f2	-1.1471541
135	0xbf2971ad	-0.6618908
136	0x3d6e6393	0.05820043
137	0xbe952559	-0.29130057
138	0x3f2c415e	0.6728724
139	0xbea30570	-0.31840086
140	0xbf8b4d78	-1.0883017
141	0x3eb2d310	0.34926653
142	0xbf3b9972	-0.73281014
143	0xbfabdb67	-1.3426331
144	0x3e7cb7c1	0.24679472
145	0x3eef21e0	0.46705532
146	0x3eef777e	0.46770853
147	0xbf3d7d49	-0.74019295
148	0x3f7ef4d8	0.9959235
149	0xbe100d4a	-0.1406757
150	0xbed69b44	-0.41915333
151	0x3db4d990	0.08830559
152	0x3e51ff45	0.20507534
153	0xbf2e3f73	-0.68065566
154	0x3eb9e217	0.36305305
155	0xbd67d2b1	-0.056597415
156	0x3f384ff7	0.71997017
157	0xbf766646	-0.96249807
158	0x3f46e87f	0.7769851
159	0x3eb1401b	0.3461922
160	0x3ed18b51	0.40926602
161	0x3f1b3907	0.6063389
162	0xbf21740a	-0.63067687
163	0xbf8376b4	-1.02706
164	0xbd96b5a3	-0.07358863
165	0xbe1c70f6	-0.15277466
166	0x3f9534c4	1.1656728
167	0x3e2cb9a7	0.16867696
168	0x3f09dc1a	0.53851473
169	0xbb20c3d4	-0.0024530785
170	0x3f9cffa7	1.2265519
171	0xbe949838	-0.29022384
172	0xbfcec5cd	-1.6154114
173	0xbee2c61a	-0.44291764
174	0xbfbbf76b	-1.4684881
175	0xbfa314eb	-1.2740759
176	0x3f478d92	0.77950394
177	0x3f28d78e	0.6595391
178	0x3ee34c69	0.44394234
179	0x3f37cd4a	0.7179762
180	0xbf29ad06	-0.6627964
181	0x3e472d3c	0.1945085
182	0xbf9c2652	-1.2199194
183	0xbf4146e4	-0.75498796
184	0x3ec2b8aa	0.38031512
185	0xbf3ce4e7	-0.7378678
186	0x3e8de88c	0.27716482
187	0x3f47af4e	0.7800187
188	0x3f3c4075	0.73535854
189	0xbfb81a01	-1.4382936
190	0xbe208e33	-0.15679245
191	0x3fa809f3	1.3128036
192	0xbf561dbe	-0.8363913
193	0xbee60aaf	-0.44930026
194	0x3c4bfe35	0.012450744
195	0x3ce71b9a	0.028211404
196	0x3ed26af0	0.41097212
197	0x3ff7fab9	1.937339
198	0x3ff7eed1	1.9369756
199	0x3e7eb11d	0.24872251
200	0x40446945	3.0689251
201	0xbfcd38d7	-1.6032971
202	0x3f15e7f4	0.5855706
203	0xbf0c8135	-0.54884654
204	0x3f932dea	1.1498387
205	0x3ec33aa4	0.38130677
206	0x3ec2458a	0.3794368
207	0x3ff00a86	1.8753211
208	0x3f96a9d5	1.1770579
209	0xbf70bb18	-0.9403548
210	0x3f21869e	0.63096035
211	0xbf577f11	-0.8417826
212	0x3f2fa06e	0.6860417
213	0xbf1a77d5	-0.603391
214	0x3e2814f2	0.1641424
215	0x3eab7df7	0.3349454
216	0x3f0ea002	0.557129
217	0xbf8dbe52	-1.1073706
218	0xbf6a5898	-0.91541433
219	0xbfbec091	-1.4902517
220	0xc004b31e	-2.0734324
221	0xbe27649e	-0.16346976
222	0xbfa43874	-1.2829728
223	0x3fa89448	1.3170252
224	0x3efee3fe	0.4978332
225	0xbee178bb	-0.44037423
226	0xbf82127c	-1.0161891
227	0x3fd56042	1.667
228	0x3ecced24	0.40024674
229	0x3f72860e	0.947358
230	0xbf030b26	-0.51188886
231	0x3f7c4ac5	0.9855159
232	0x3ed28131	0.4111419
233	0xbea9f6f9	-0.33196238
234	0x3ded0bb6	0.11574499
235	0xbfa6639a	-1.2999146
236	0x3f165cfb	0.58735627
237	0xbf188731	-0.59581286
238	0xbf07d76f	-0.530631
239	0xbe0788a0	-0.13235712
240	0xbf178e71	-0.59201723
241	0xbed05464	-0.40689385
242	0x3df36384	0.118842155
243	0x3e889bb2	0.26681286
244	0xbeb156b9	-0.34636477
245	0xbd3b6df6	-0.045759164
246	0xbf55cef2	-0.835189
247	0x3f91b4ed	1.1383339
248	0x3e2e5989	0.17026342
249	0x3ded228d	0.11578856
250	0x3f6a06f0	0.91416836
251	0xc0288d13	-2.6336105
252	0xbeb617ae	-0.3556494
253	0x3ddd26d5	0.10798422
254	0xbeedcda5	-0.46445957
255	0x3eb942ea	0.36183864

lstm.bias_ih_l0 f4 [64]
0	0x3f564623	0.8370077
1	0x3f2dfbe3	0.67962474
2	0x3e77269b	0.2413582
3	0x402157e1	2.5209887
4	0x3beb342c	0.00717785
5	0xbf17f885	-0.59363586
6	0xbd283913	-0.041070055
7	0x3d730795	0.059333403
8	0x3dd25324	0.10269764
9	0x3dd8f721	0.10594011
10	0x3f94e5d6	1.163264
11	0x3f1d2e53	0.6139881
12	0x401fa14e	2.4942203
13	0x3f386b2d	0.7203854
14	0x3f3b2fee	0.7312001
15	0x3dda92f9	0.10672564
16	0x3d7f5dba	0.062345244
17	0xbe2b383d	-0.16720672
18	0xbe2db2be	-0.16962716
19	0x3e3ac413	0.18238859
20	0xbe826464	-0.25467217
21	0xbe2dced6	-0.16973433
22	0x3f8eeb06	1.1165473
23	0xbd94cc79	-0.072655626
24	0x3f199320	0.5999012
25	0x3f0b554d	0.54427034
26	0xbe95131f	-0.2911615
27	0x3f694dcf	0.9113435
28	0x3f8a5264	1.0806394
29	0x3eafefc6	0.3436262
30	0xbe6a0be1	-0.22856094
31	0xbebb4290	-0.3657422
32	0xbee30448	-0.44339204
33	0x3f036f4a	0.5134169
34	0x3beb96af	0.0071895937
35	0xbf869806	-1.0515144
36	0x3df80716	0.121107265
37	0x3e683a3a	0.22678462
38	0xbe0569b1	-0.130286
39	0xbe393292	-0.18085697
40	0x3f7039c8	0.9383817
41	0xbed05d39	-0.40696123
42	0xbf4c2b3b	-0.79753464
43	0x3e23b9f1	0.159889
44	0x3f5f1429	0.87140137
45	0x3f45780a	0.7713629
46	0xbc9923a2	-0.018693749
47	0x3dfba83d	0.12287948
48	0x3d669841	0.056297544
49	0x3f2c3d98	0.67281485
50	0x3e94bb72	0.2904926
51	0x3f873a14	1.0564599
52	0xbe21d166	-0.15802535
53	0x3c44a1e9	0.012001493
54	0xbf33d1c4	-0.7024195
55	0xbe831471	-0.25601533
56	0x3f46aeb2	0.77610314
57	0x3f0997b6	0.5374712
58	0x3fa54700	1.2912292
59	0x3f8ad49d	1.0846134
60	0x3f83157b	1.024093
61	0xbe46a352	-0.1939824
62	0x3f0d0eaf	0.5510053
63	0x3e841a96	0.25801533

lstm.bias_hh_l0 f4 [64]
0	0x3f3e6323	0.7437002
1	0x3f3e976b	0.74449795
2	0x3eec2738	0.46123672
3	0x402203e1	2.5314867
4	0x3ea9d282	0.33168417
5	0xbea40efb	-0.3204268
6	0x3d1a7f02	0.03771878
7	0x3e2e556e	0.17024776
8	0x3e997408	0.29971337
9	0x3e6f12e5	0.23347051
10	0x3f5a10b0	0.85181713
11	0x3f6dd7d9	0.9290748
12	0x402488ab	2.5708416
13	0x3f62da05	0.8861392
14	0x3ea04068	0.31299138
15	0x3ed430d2	0.41443497
16	0x3edee34a	0.43532783
17	0xbe3d6899	-0.18496932
18	0xbe638c6a	-0.22221532
19	0x3d88c15a	0.06677504
20	0xbdbd0279	-0.09228987
21	0xbe9c82b1	-0.3056846
22	0x3f9ef799	1.2419311
23	0xbdffa553	-0.12482705
24	0x3ebd10ce	0.36926883
25	0x3f2bfaa5	0.6717933
26	0xbf314b55	-0.6925557
27	0x3f3c885d	0.73645574
28	0x3f20e067	0.6284241
29	0x3e86961e	0.26286405
30	0x3e38620d	0.18006153
31	0xbf26d097	-0.6516203
32	0xbeccd26b	-0.40004286
33	0x3f4f565e	0.8099116
34	0xbe5fedd8	-0.21868074
35	0xbf8d4f67	-1.1039857
36	0x3e9728d9	0.29523352
37	0x3b18f081	0.002333671
38	0x3c35e794	0.011102576
39	0x3dff2364	0.12457922
40	0x3f450b18	0.7697005
41	0xbeae2eb5	-0.3402001
42	0xbf4706b8	-0.77744627
43	0x3cbc68e8	0.022999242
44	0x3f80f016	1.0073268
45	0x3ec66f9f	0.38757035
46	0x3e27c8bf	0.16385172
47	0x3de222f9	0.11041827
48	0x3e802ecd	0.25035706
49	0x3ea16686	0.31523532
50	0x3ee3bd50	0.4448037
51	0x3f6b9668	0.92026377
52	0x3a7f7891	0.0009745444
53	0xbea83d17	-0.32859108
54	0xbf0f63b2	-0.560115
55	0xbd23b82b	-0.039970558
56	0x3f572650	0.84042835
57	0x3e52a64d	0.20571251
58	0x3fa302fa	1.2735283
59	0x3f801d0b	1.0008863
60	0x3f7cd89a	0.9876801
61	0xbe48d9d2	-0.19614342
62	0x3f7e493d	0.993305
63	0x3cef6f5f	0.02922791

linear.weight f4 [98, 16]
0	0x3fb2fc1b	1.3983186
1	0x3e84d51d	0.25943843
2	0x3ed1ec50	0.41000605
3	0xbe93a885	-0.28839508
4	0x3f19e22a	0.60110724
5	0xbee02ca6	-0.43784064
6	0x3f8b8ddd	1.0902668
7	0xbe4701c7	-0.19434272
8	0xbebf7086	-0.37390536
9	0x3ef19284	0.47182095
10	0xc080501d	-4.0097795
11	0x3e803da8	0.2504704
12	0xbd419b58	-0.047267288
13	0x402895e8	2.6341496
14	0x3ebc3e70	0.36766386
15	0x3f7ce512	0.98787034
16	0xbf008fb0	-0.5021925
17	0x3f5abe62	0.8544675
18	0xbed927a7	-0.42413065
19	0xc03c88fc	-2.9458609
20	0xbf520c85	-0.82050353
21	0xbebdb648	-0.37053132
22	0x3e1642ab	0.1467387
23	0x3e1e1d03	0.15440755
24	0xbf4d7169	-0.80251175
25	0x3f04e3d5	0.51910144
26	0xbf682e83	-0.9069597
27	0x40330378	2.7970867
28	0x3fc0b8b5	1.5056368
29	0x3e1bc830	0.15213084
30	0x3e9b077a	0.30279142
31	0x3fff03a9	1.9922992
32	0xbeba0df9	-0.36338785
33	0x3f83a9a5	1.0286146
34	0xbeff1496	-0.49820393
35	0xc01993d9	-2.399649
36	0xbf3c9944	-0.73671365
37	0xbecb5926	-0.39716452
38	0x3e31170b	0.17293946
39	0x3e9576b1	0.29192117
40	0xbf85ecf4	-1.0462937
41	0x3ef16392	0.4714628
42	0xbf22270f	-0.6334085
43	0x401b9229	2.430796
44	0x3fc07421	1.503544
45	0x3d85d554	0.0653483
46	0x3f15c237	0.58499473
47	0x400ba662	2.1820302
48	0xbeaa075d	-0.33208743
49	0x3f495544	0.7864573
50	0xbf11ed7a	-0.57002985
51	0xbf6b3892	-0.91883194
52	0xbe7767e3	-0.24160723
53	0xbf015c38	-0.5053134
54	0x3edcc8b6	0.4312188
55	0x3ea57cc5	0.32321754
56	0xbf8ef436	-1.1168277
57	0x3f277cb4	0.65424657
58	0xbf11520c	-0.5676582
59	0x3ff804d5	1.9376475
60	0x3ef85ca0	0.48508167
61	0x3f20e9b7	0.6285662
62	0x3f08fe59	0.53513104
63	0x4011b77d	2.2768242
64	0xbe1895ed	-0.14900942
65	0x3f178fcb	0.59203786
66	0xbf0e32e3	-0.55546397
67	0xc01c32be	-2.440597
68	0xbe4f7f33	-0.20263366
69	0xbf27bb20	-0.65519905
70	0x3e939583	0.28825006
71	0x3e4fef37	0.20306097
72	0xbf3a0649	-0.7266584
73	0x3f3298d8	0.6976447
74	0xbf11ca7d	-0.569496
75	0x3f2aca42	0.6671487
76	0x3f5e8f33	0.86937255
77	0xbd18ecbf	-0.037335154
78	0x3efa8b17	0.48934242
79	0x3ea274a0	0.31729603
80	0xbeb38341	-0.35061076
81	0x3f20baa6	0.627848
82	0xbe8935b6	-0.2679879
83	0xbfdd369e	-1.7282293
84	0xbe98643e	-0.2976398
85	0xbf1639b5	-0.58681804
86	0x3e81279d	0.25225535
87	0x3e314ac7	0.17313682
88	0xbf65155a	-0.89485705
89	0x3f5e58a7	0.8685402
90	0x3e87216f	0.26392695
91	0x3f2ac303	0.66703814
92	0x3f7d4ecf	0.9894838
93	0xbd407dc5	-0.046994943
94	0x3f542b22	0.82878315
95	0x3f2fd42d	0.6868313
96	0xbefa8a6b	-0.4893373
97	0x3ea32296	0.31862324
98	0xbe4bec65	-0.19914396
99	0xbfd734e5	-1.6813017
100	0xbed0a57f	-0.40751263
101	0xbe67af4f	-0.22625469
102	0x3dc3cfde	0.09561132
103	0x3e2b1826	0.1670843
104	0xbf00bd9a	-0.5028931
105	0x3f263cb9	0.64936405
106	0x3f067b2e	0.5253171
107	0x3f0a0d40	0.5392647
108	0x3f42732b	0.7595698
109	0xbf1b435c	-0.6064966
110	0x3f2bf286	0.67166936
111	0x3eac1071	0.33606294
112	0xbab9784a	-0.0014150229
113	0x3f6a1ae2	0.9144727
114	0xbef7fcab	-0.48434958
115	0xbf814e70	-1.0102062
116	0xbe783169	-0.24237598
117	0xbf29f74c	-0.6639297
118	0x3ed98e34	0.42491305
119	0x3d9b5dd6	0.07586257
120	0xbf6e2ab2	-0.930339
121	0x3ef3868d	0.47563592
122	0xbecd7112	-0.40125328
123	0x3f96f53d	1.1793591
124	0x3f480ca5	0.78144294
125	0x3e2fdfbd	0.17175193
126	0x3ec68a04	0.38777173
127	0x40050ed9	2.0790312
128	0xbebcb936	-0.36860055
129	0x3eaaba96	0.3334548
130	0xbe87c731	-0.26519158
131	0xbe39c7e6	-0.18142661
132	0xbd88aa74	-0.06673136
133	0xbe8653c3	-0.2623578
134	0x3e8f88e6	0.28034133
135	0x3c542af9	0.012949699
136	0xbf3a1d9a	-0.7270142
137	0x3f25f2a7	0.64823383
138	0x3f23ecfe	0.64033496
139	0x3e86a498	0.2629745
140	0x3ef1ad94	0.47202742
141	0x3dc4e289	0.09613521
142	0x3ee0cd8b	0.43906817
143	0x3dcf79b3	0.10130634
144	0xbe163e6d	-0.14672251
145	0x3e69d8b1	0.22836567
146	0xbe3debe6	-0.1854702
147	0xbf6e9836	-0.93201005
148	0xbc1949a8	-0.00935594
149	0xbec5cf5a	-0.3863476
150	0xbeac237e	-0.33620828
151	0x3ea2d658	0.31804156
152	0xbf4bff13	-0.7968609
153	0x3ef722e9	0.48268822
154	0x3eea9129	0.45813873
155	0xbcd51cd6	-0.026014727
156	0x3f47803d	0.7793005
157	0xbee66457	-0.44998428
158	0x3f1cfed7	0.61326355
159	0xbbba5b93	-0.005687186
160	0xbeac9470	-0.33707
161	0x3f31e34c	0.6948745
162	0xbf15a8c3	-0.58460635
163	0xbcb0a295	-0.0215619
164	0xbedac5d3	-0.42729053
165	0xbedbffcc	-0.42968595
166	0x3e3f4ad8	0.18680894
167	0x3d134fa4	0.035964623
168	0xbf217499	-0.6306854
169	0x3f144333	0.5791504
170	0x3f62cd5a	0.8859459
171	0x3f09cb8d	0.5382622
172	0x3ef4680b	0.47735628
173	0x3ef11198	0.47083735
174	0x3f00374a	0.50084364
175	0x3f24dbf5	0.6439813
176	0xbe9c146c	-0.3048433
177	0x3de02cb6	0.10946028
178	0xbefe88ac	-0.49713647
179	0xbdfdd4ce	-0.12394105
180	0xbea274f3	-0.3172985
181	0xbef8452b	-0.4849027
182	0x3d81ad80	0.063319206
183	0x3eaa60fb	0.33277115
184	0xbec6e993	-0.38850078
185	0x3f0a9380	0.5413132
186	0x3f508c8c	0.8146446
187	0x3e4b7316	0.1986812
188	0x3f0d34f5	0.5515893
189	0xbe96b706	-0.2943651
190	0x3e5a9480	0.21345711
191	0x3d91d0fc	0.07119939
192	0xbf4403a1	-0.7656804
193	0x3e5862ee	0.21131489
194	0xbe4979b7	-0.19675337
195	0xbdd9868e	-0.106213674
196	0x3cb9c5af	0.02267727
197	0xbee3131b	-0.44350514
198	0xbe5469a7	-0.20743428
199	0x3e6aa2e3	0.22913699
200	0xbf53dbd4	-0.82757306
201	0x3f4efc72	0.8085395
202	0x3ee1145b	0.43960842
203	0x3eab2f40	0.33434486
204	0x3ecfa480	0.4055519
205	0xbf879b67	-1.05943
206	0x3f42eee2	0.76145756
207	0x3f363e44	0.7118876
208	0xbf251a47	-0.6449322
209	0x3e7cc2ea	0.24683729
210	0xbe11e711	-0.14248301
211	0x3e8d4974	0.27595103
212	0xbde49b2d	-0.1116241
213	0xbeb8cdf5	-0.36094633
214	0xbd4d18f3	-0.05007262
215	0x3d134ffb	0.035964947
216	0xbf196c50	-0.59930897
217	0x3f05c33f	0.52251047
218	0x3f3c9617	0.7366652
219	0x3cdfea38	0.027333364
220	0x3e86024b	0.26173624
221	0xbf45194d	-0.7699173
222	0x3ef6dde7	0.48216173
223	0x3f075b92	0.528741
224	0xbfaef56a	-1.3668644
225	0x3db70381	0.08936215
226	0xbf249fe5	-0.6430648
227	0xbfc8fabb	-1.5701517
228	0x3c656606	0.014001375
229	0xbf32e531	-0.6988097
230	0x3ec69884	0.38788235
231	0x3e3d1171	0.18463685
232	0xbf02d759	-0.51109844
233	0x3f07a9ed	0.5299366
234	0xbd973d42	-0.07384731
235	0xbec2ee46	-0.38072413
236	0x3fab7545	1.3395163
237	0x3e27707b	0.16351502
238	0x3f107d65	0.56441337
239	0x3f14cf51	0.5812884
240	0xbf1fc08b	-0.6240317
241	0x3f0e9795	0.55700046
242	0xba3c5332	-0.0007184028
243	0x3ebc2a0a	0.36750823
244	0xbe8561a0	-0.26051044
245	0xbed5a2b9	-0.4172571
246	0x3c561629	0.013066807
247	0x3e688632	0.22707441
248	0xbf2e77b9	-0.6815143
249	0x3e910c32	0.28329617
250	0x3e1cf288	0.15326893
251	0x3e86d9c6	0.26338023
252	0x3ea71f4b	0.32641062
253	0xbf02bc13	-0.5106823
254	0x3e91d757	0.28484604
255	0x3f863c27	1.0487107

linear.bias f4 [98]
0	0xbe2be76c	-0.16787499
1	0xbefdf59b	-0.49601445
2	0xbee79b7f	-0.45235822
3	0xbf4515ae	-0.76986206
4	0xbf30db0e	-0.6908425
5	0xbf165fa8	-0.5873971
6	0xbedc0ce3	-0.42978582
7	0xbeac97ad	-0.3370947
8	0xbf3a9d63	-0.72896403
9	0xbee76794	-0.4519621
10	0xbf372e6b	-0.71555203
11	0xbf0fe3fd	-0.5620726
12	0xbf0f4309	-0.5596166
13	0xbeae84ed	-0.3408579
14	0xbecd098f	-0.40046355
15	0xbee03870	-0.43793058
16	0xbe6d3583	-0.23164944
17	0xbf5f4d88	-0.8722768
18	0xbe928aa5	-0.28621402
19	0xbf137acd	-0.57609254
20	0xbf367e40	-0.7128639
21	0xbf6fdbbe	-0.93694675
22	0xbf125186	-0.57155645
23	0xbf408f39	-0.7521854
24	0xbf499e66	-0.7875732
25	0xbf527ebf	-0.8222465
26	0xbf04692e	-0.5172299
27	0xbedca408	-0.43093896
28	0xbee30493	-0.44339427
29	0xbed91790	-0.4240079
30	0xbf1a4766	-0.60265195
31	0xbf6dad11	-0.92842203
32	0xbf02d041	-0.5109902
33	0xbeee78c6	-0.46576518
34	0xbe9e24fa	-0.30887586
35	0xbea11f02	-0.3146897
36	0xbe9b95e4	-0.30387795
37	0xbe61ad0f	-0.22038673
38	0xbeef85b7	-0.46781704
39	0xbdb39840	-0.08769274
40	0xbea3906d	-0.31946126
41	0xbf310df7	-0.69161934
42	0xbe8d18d9	-0.2755802
43	0xbf4e6ca7	-0.8063454
44	0xbea0a5f2	-0.31376606
45	0xbfa84774	-1.3146806
46	0xbf5020fb	-0.81300324
47	0xbf2608ea	-0.6485735
48	0xc0346284	-2.818513
49	0x3df5328c	0.11972532
50	0xbf7e0716	-0.9922956
51	0xbf29b495	-0.6629117
52	0xbf902651	-1.1261693
53	0xbf37aabd	-0.717449
54	0xbf1c145a	-0.60968554
55	0xbf52f849	-0.82410103
56	0xbefde55c	-0.4958905
57	0xbf6e7bba	-0.9315754
58	0xbf1dc8d5	-0.6163457
59	0xbf3c7525	-0.7361625
60	0xbf0c8417	-0.54889053
61	0xbf443320	-0.7664051
62	0xbf444609	-0.76669365
63	0xbea97860	-0.3309965
64	0xbf4a26dd	-0.7896555
65	0xbf35e0e9	-0.7104631
66	0xbf0ac64d	-0.5420883
67	0xbf85bc49	-1.0448085
68	0xbf57201a	-0.8403336
69	0xbf86fd79	-1.0546104
70	0xbf75cb82	-0.96013653
71	0xbfa3dd8e	-1.2801988
72	0xbd9a48f5	-0.07533447
73	0xbf79ce72	-0.97580636
74	0xbf8225e3	-1.0167812
75	0xbf7add58	-0.97993994
76	0xbefb8625	-0.49125782
77	0xbf02811e	-0.5097827
78	0xbf0b8658	-0.5450187
79	0xbf1ac039	-0.6044956
80	0xbedf2718	-0.43584514
81	0xbef8bb56	-0.48580426
82	0xbf4f3927	-0.8094658
83	0xbf0b1634	-0.54330754
84	0xbf4e6313	-0.80619925
85	0xbecd4697	-0.40092918
86	0xbe947621	-0.28996375
87	0xbe99a2f9	-0.3000715
88	0xbed44fe8	-0.41467214
89	0xbf50739d	-0.8142641
90	0xbe53640f	-0.20643638
91	0xbeee3f40	-0.4653263
92	0xbe682b44	-0.22672755
93	0xbedd6120	-0.43238163
94	0xbf6028db	-0.8756234
95	0xbf5005cf	-0.81258863
96	0xbf6ccf1b	-0.9250352
97	0xbf52442e	-0.82135284
